python/mage/link_prediction/models/model.pt (torch, 5327 bytes, 8 tensors)

attn_l f4 [1, 8, 3]
0.46035334 -0.4712172 0.20408548 0.04417594 0.2964958 -0.10308838 0.37597722 0.14814457
0.46841115 -0.5513978 0.23973002 0.0025145286 -0.04859199 -0.22933316 0.33271194 -0.6525797
0.47603256 0.005734414 0.38991284 0.29180822 0.24723074 -0.6663838 0.84705496 0.13142939
00000000: 6fb3 eb3e 6143 f1be c9fb 503e d5f1 343d
00000010: 4cce 973e 0020 d3bd 1680 c03e 36b3 173e
00000020: 96d3 ef3e 6828 0dbf c97b 753e caca 243b
00000030: 6508 47bd 50d6 6abe 3859 aa3e 770f 27bf
00000040: 8aba f33e c0e7 bb3b a8a2 c73e e367 953e
00000050: 0e2a 7d3e 2198 2abf 98d8 583f 6d95 063e

attn_r f4 [1, 8, 3]
-0.11628455 -0.57161695 -0.28080082 -0.1827919 -0.24378556 -0.5649361 -0.26360035 -0.8727294
-0.06286906 0.66984147 0.0098090805 0.08123545 -0.055699203 0.24543154 -0.10827437 -0.51186466
-0.0546619 -0.20559539 -0.2014485 0.33158225 -0.3413927 0.3228428 0.44374695 -0.6778469
00000000: 9826 eebd 7d55 12bf 20c5 8fbe cd2d 3bbe
00000010: eca2 79be a79f 10bf a0f6 86be 326b 5fbf
00000020: 7ec1 80bd bb7a 2b3f 44b6 203c c65e a63d
00000030: d924 64bd 6852 7b3e f4be ddbd 9009 03bf
00000040: 28e5 5fbd 9987 52be 8448 4ebe 26c5 a93e
00000050: 06cb aebe a74b a53e cd32 e33e 6087 2dbf

bias f4 [24]
-0.09118355 -0.091108724 -0.01056364 -0.09118355 -0.091108724 -0.01056364 -0.09118355 -0.091108724
-0.01056364 -0.09118355 -0.091108724 -0.01056364 -0.09118355 -0.091108724 -0.01056364 -0.09118355
-0.091108724 -0.01056364 -0.09118355 -0.091108724 -0.01056364 -0.09118355 -0.091108724 -0.01056364
00000000: 71be babd 3697 babd 1e13 2dbc 71be babd
00000010: 3697 babd 1e13 2dbc 71be babd 3697 babd
00000020: 1e13 2dbc 71be babd 3697 babd 1e13 2dbc
00000030: 71be babd 3697 babd 1e13 2dbc 71be babd
00000040: 3697 babd 1e13 2dbc 71be babd 3697 babd
00000050: 1e13 2dbc 71be babd 3697 babd 1e13 2dbc

weight f4 [24, 3]
0.48969612 0.7101567 0.5657222 0.825126 -0.52435654 -0.21311285 -0.4544516 -0.09359923
0.13922682 -0.38398206 -0.7066488 -0.084069364 -0.3799585 -0.019721301 0.14797646 0.2374978
-0.070510164 -0.20985742 0.35864586 0.060674734 0.65607715 0.21357286 -0.09888636 -0.2593152
-0.60173917 -0.22334671 0.38788006 0.53419673 -0.23190385 -0.5924952 -0.052847974 0.07895802
-0.06291289 0.42406622 0.041097313 0.15656443 -0.40006348 -0.5896865 -0.37993145 -0.596081
-0.011660406 -0.21945588 -0.16758148 0.022081822 0.29743025 -0.16232027 -0.233653 -0.5570237
-0.3611327 0.30792645 -0.3234564 -0.51051545 -0.029856704 -0.25124216 0.14284718 -0.3721313
-0.1911147 -0.045569517 0.002815052 0.3571534 0.121048294 0.076247476 -0.09959926 -0.13657252
-0.0171864 -0.38839036 -0.82255083 -0.04080458 -0.36219403 0.12930188 -0.010442081 0.12934813
00000000: 73b9 fa3e d4cc 353f 2cd3 103f 753b 533f
00000010: 3b3c 06bf 413a 5abe e1ad e8be f4b0 bfbd
00000020: 7a91 0e3e 4c99 c4be f0e6 34bf 8f2c acbd
00000030: ec89 c2be 918e a1bc 2487 173e a032 733e
00000040: a267 90bd dde4 56be 6ea0 b73e 1286 783d
00000050: acf4 273f d8b2 5a3e ef84 cabd f6c4 84be
00000060: 940b 1abf 00b5 64be 3798 c63e 1ec1 083f
00000070: 3478 6dbe c4ad 17bf 1e77 58bd beb4 a13d
00000080: 79d8 80bd 351f d93e a855 283d 6d52 203e
00000090: 1fd5 ccbe b2f5 16bf 6086 c2be c498 18bf
000000a0: 4a0b 3fbc 0bb9 60be 7b9a 2bbe f0e4 b43c
000000b0: c748 983e 4937 26be bb42 6fbe 1b99 0ebf
000000c0: 63e6 b8be 89a8 9d3e 149c a5be 24b1 02bf
000000d0: 0c96 f4bc d0a2 80be 8846 123e fe87 bebe
000000e0: 92b3 43be 1aa7 3abd bc7c 383b cfdc b63e
000000f0: 2be8 f73d a327 9c3d b2fa cbbd abd9 0bbe
00000100: 7eca 8cbc 1adb c6be b192 52bf b422 27bd
00000110: 7f71 b9be b667 043e 4315 2bbc d673 043e

attn_l f4 [1, 4, 2]
0.13327219 -0.9826921 -0.7900025 -0.5941182 -0.6369088 0.42473993 0.7193998 -0.54014844
00000000: 8178 083e b691 7bbf 9b3d 4abf 2118 18bf
00000010: 750c 23bf 8377 d93e 962a 383f 2b47 0abf

attn_r f4 [1, 4, 2]
-0.65495926 1.0460589 0.034625057 -0.54564196 0.5878704 -0.77316177 0.49472547 0.004986969
00000000: 69ab 27bf 42e5 853f 01d3 0d3d 31af 0bbf
00000010: ad7e 163f eeed 45bf a84c fd3e ba69 a33b

bias f4 [8]
0.089306764 0.06942775 0.089306764 0.06942775 0.089306764 0.06942775 0.089306764 0.06942775
00000000: 77e6 b63d 2330 8e3d 77e6 b63d 2330 8e3d
00000010: 77e6 b63d 2330 8e3d 77e6 b63d 2330 8e3d

weight f4 [8, 3]
0.9390967 -0.5126612 0.07465357 0.9085676 1.3122884 0.35552758 -0.40146005 -0.38428727
0.298448 0.5650059 -0.027562741 -0.4733361 -0.009321701 -0.6811522 0.00093011477 -0.20727113
-0.4069189 0.46239507 -0.34155646 0.6905917 0.8456555 -0.28655013 0.6797865 -0.29264218
00000000: a468 703f c43d 03bf f9e3 983d e397 683f
00000010: 11f9 a73f b607 b63e 2c8c cdbe 4dc1 c4be
00000020: 2dce 983e 3aa4 103f 42cb e1bc 1c59 f2be
00000030: 0cba 18bc fe5f 2ebf f2d2 733a e23e 54be
00000040: ad57 d0be 0cbf ec3e 7de0 aebe 9eca 303f
00000050: e17c 583f b3b6 92be 7d06 2e3f 32d5 95be
